data.pth (torch, 5399 bytes, 6 tensors)

l1.weight f4 [8, 53]
0.42495224 -0.32438537 -0.24231811 0.7319704 -0.722835 0.25037882 0.616569 0.55098647
0.16050726 0.45507413 0.037397128 0.56261504 0.566086 -0.7999257 -0.2453943 -0.1418615
-0.16080128 0.58214045 -0.25607795 1.0550538 0.69031125 0.52751344 0.030812899 0.7405848
0.5094369 -0.8000269 0.6330538 0.53653413 0.68163925 0.69725 0.37298957 -0.23234753
-0.13072093 0.28396603 -0.4594192 0.2702096 -0.56699 -0.33194888 -0.35299584 0.81344354
-0.21803501 -0.34404528 -0.65738875 -0.27327976 0.032991733 -0.12194199 0.8040439 0.45550346
-0.050067976 0.58862686 -0.23878922 0.25605458 0.3936629 0.35686195 0.5740574 0.53249085
0.66684633 0.6118415 0.27887323 0.18781444 -0.5435657 0.24841335 -0.21989748 0.396804
-0.3811362 -0.01499823 0.46563968 0.38984305 0.64879537 -0.85395074 -0.24397992 0.37746745
-0.266733 0.2086123 0.0146602085 -0.47920188 -0.23543575 -0.22825874 0.47197863 -0.47190544
-0.0033769598 -0.4720215 -0.47196153 -0.24913707 0.37248302 0.4513207 0.68852526 0.3751948
0.20083216 0.8375614 0.020982135 0.93879807 -0.3744427 0.9601694 0.094078355 0.28516382
0.007977989 0.4505193 0.24539609 0.49144906 0.17289416 0.6700312 -0.3688529 -0.8250084
0.7772626 -0.002879101 0.74519414 0.636502 0.5951461 -0.3215172 0.32567638 0.15754437
-0.17026556 0.36111063 0.40071926 0.23617198 0.26694208 -0.22349884 -0.094836175 1.0430691
0.4111907 0.5290245 -0.6129169 0.30399576 0.4735821 -0.4213017 0.33092785 -0.16252275
-0.67461073 -0.2679609 0.22660615 0.93404 0.46688947 0.6820933 0.39788362 0.37269688
0.33238143 0.73979944 0.39566427 0.1294655 0.6588629 0.59288263 0.47000477 0.032894604
-0.4962974 -0.32708955 -0.25202146 0.09031096 0.67264634 0.05422341 0.18406335 0.49941283
0.9697152 0.5902983 -0.0034245607 0.2756313 -0.44713804 -0.15598203 0.7179578 0.6465904
0.021111589 0.22868802 0.43676722 -0.528626 0.276341 -0.115061715 0.40483606 0.2858715
0.36577752 -0.18902753 -0.14510967 0.011545175 0.90844417 0.23603944 0.025302516 -0.32244864
0.4512192 0.040010847 -0.17327023 -0.58370435 -0.15466219 0.755925 0.092931874 0.41295394
0.7414736 0.5357043 0.47370088 0.4411149 0.47892645 0.42069677 -0.3963755 0.22001188
0.14365438 0.6470419 0.46211797 -0.36551598 0.29738444 -0.37065622 -0.27914357 -0.28588098
0.09353575 0.585857 0.27076355 -0.23526682 -0.39585742 0.84825164 0.32010162 -0.047563493
0.37804163 -0.41250834 -0.14912684 0.46328154 0.2884317 -0.16250612 -0.15285397 0.00039528837
-0.2639459 -0.26700923 0.6553649 0.45997033 -0.30891663 0.44760028 0.4698208 0.45790002
0.5721416 -0.78040195 -0.15387239 -0.0072114705 -0.35807097 0.4693683 0.05826207 0.15630886
0.777757 0.69579494 -0.031556215 0.42460924 0.37190807 -0.78461653 0.74750656 0.18559682
0.6137926 0.62612224 0.44808456 0.40035516 -0.18320747 0.014317457 -0.52347285 0.22669053
-0.19398065 0.54936075 -0.51454425 0.20296326 -0.05036754 0.5413957 -0.5775605 0.37838814
00000000: 5793 d93e d715 a6be 3d22 78be 6a62 3b3f
00000010: b70b 39bf a731 803e 77d7 1d3f 730d 0d3f
00000020: 045c 243e 7aff e83e bb2d 193d 8a07 103f
00000030: 03eb 103f eec7 4cbf a548 7bbe 2444 11be
00000040: 17a9 24be 2807 153f a61c 83be 010c 873f
00000050: 3db8 303f 1f0b 073f 556b fc3c f796 3d3f
00000060: 756a 023f 90ce 4cbf d00f 223f 4d5a 093f
00000070: e97f 2e3f fa7e 323f 7df8 be3e 83ec 6dbe
00000080: b5db 05be ff63 913e fe38 ebbe ea58 8a3e
00000090: 4226 11bf 34f5 a9be dfbb b4be d63d 503f
000000a0: 9244 5fbe b426 b0be a14a 28bf 53eb 8bbe
000000b0: 5722 073d b9bc f9bd d2d5 4d3f c037 e93e
000000c0: 1414 4dbd 40b0 163f 2985 74be 9619 833e
000000d0: 2f8e c93e 9cb6 b63e 6df5 123f 5251 083f
000000e0: 71b6 2a3f a5a1 1c3f 79c8 8e3e 6e52 403e
000000f0: 1f27 0bbf 1260 7e3e ce2c 61be e529 cb3e
00000100: 4924 c3be 23bb 75bc 5368 ee3e 8299 c73e
00000110: 7417 263f 849c 5abf dfd5 79be 6a43 c13e
00000120: 3a91 88be 769e 553e 5f31 703c f359 f5be
00000130: 1216 71be a9bc 69be 2fa7 f13e 979d f1be
00000140: fc4f 5dbb cdac f1be f1a4 f1be ca1d 7fbe
00000150: 18b6 be3e 8213 e73e 3143 303f 8819 c03e
00000160: f2a6 4d3e 6d6a 563f bae2 ab3c 1255 703f
00000170: f4b6 bfbe a9cd 753f 27ac c03d fe00 923e
00000180: 1cb6 023c 77aa e63e 1d49 7b3e 369f fb3e
00000190: 2b0b 313e 2a87 2b3f 4ada bcbe c033 53bf
000001a0: affa 463f 4daf 3cbb 0bc5 3e3f ccf1 223f
000001b0: 7f5b 183f e79d a4be 0ebf a63e 5053 213e
000001c0: 185a 2ebe 7ee3 b83e 132b cd3e 11d7 713e
000001d0: a2ac 883e e1dc 64be 7839 c2bd 4a83 853f
000001e0: 9687 d23e 266e 073f 1fe8 1cbf 55a5 9b3e
000001f0: 5a79 f23e dbb4 d7be 606f a93e 5d6c 26be
00000200: 4ab3 2cbf 2c32 89be 710b 683e 3f1d 6f3f
00000210: 230c ef3e ab9d 2e3f 67b7 cb3e 20d2 be3e
00000220: e62d aa3e 7f63 3d3f 8294 ca3e 9b92 043e
00000230: 3dab 283f 28c7 173f 77a4 f03e 7ebc 063d
00000240: b11a febe 4878 a7be f508 81be f4f4 b83d
00000250: 8d32 2c3f 5e19 5e3d 1a7b 3c3e 0ab3 ff3e
00000260: 413f 783f ca1d 173f 986e 60bb 8c1f 8d3e
00000270: 47ef e4be c1b9 1fbe 15cc 373f f386 253f
00000280: 36f2 ac3c 312d 6a3e f49f df3e 0954 07bf
00000290: 917c 8d3e 7aa5 ebbd ac46 cf3e c05d 923e
000002a0: 3147 bb3e 6f90 41be a197 14be f927 3d3c
000002b0: cc8f 683f 53b4 713e 3947 cf3c fd17 a5be
000002c0: 3406 e73e 6ae2 233d c06d 31be a66d 15bf
000002d0: c45f 1ebe 4d84 413f 1153 be3d b36e d33e
000002e0: 37d1 3d3f eb23 093f ec88 f23e d0d9 e13e
000002f0: d935 f53e 9165 d73e bbf1 cabe cb4a 613e
00000300: 221a 133e 8aa4 253f ba9a ec3e e924 bbbe
00000310: c642 983e a7c6 bdbe e8eb 8ebe fe5e 92be
00000320: ac8f bf3d b9fa 153f 85a1 8a3e c9e9 70be
00000330: d3ad cabe 0527 593f 5ce4 a33e f0d1 42bd
00000340: ac8e c13e 4b34 d3be b5b4 18be 3d33 ed3e
00000350: 52ad 933e 0168 26be c085 1cbe b53e cf39
00000360: eb23 87be 6fb5 88be fec5 273f 3b81 eb3e
00000370: 522a 9ebe dd2b e53e 5a8c f03e df71 ea3e
00000380: df77 123f 6cc8 47bf b990 1dbe 334e ecbb
00000390: 1455 b7be 0b51 f03e 35a4 6e3d 6e0f 203e
000003a0: 151b 473f 9e1f 323f 1741 01bd 6266 d93e
000003b0: bc6a be3e a1dc 48bf 975c 3f3f 180d 3e3e
000003c0: 8321 1d3f 8c49 203f 576b e53e 5afb cc3e
000003d0: bd9a 3bbe c493 6a3c 5102 06bf 9021 683e
000003e0: dda2 46be e8a2 0c3f 2cb9 03bf 9ad5 4f3e
000003f0: 324e 4ebd e998 0a3f 01db 13bf 17bc c13e

l1.bias f4 [8]
0.79991966 0.47197992 1.0960772 0.9471415 0.7846129 0.38543138 0.8740594 0.76575917
00000000: 89c7 4c3f 5aa7 f13e 424c 8c3f de77 723f
00000010: 64dc 483f 4357 c53e 5bc2 5f3f cb08 443f

l2.weight f4 [8, 8]
-0.55452114 0.7229908 0.6491154 -0.54003257 -0.14301199 -0.016422873 0.1579789 -0.6258947
-0.1866396 -0.066295505 -0.24415112 -0.26792264 0.2387465 -0.14782244 0.008815825 0.15410027
1.0629845 -0.59423774 0.80631816 1.0099394 1.2252038 -1.2606313 0.61767477 -0.30842012
1.2895675 0.8393351 -1.277232 -0.1554222 -0.1483052 0.107585154 0.4259117 1.0307997
-1.1955283 1.2777278 0.27501723 0.6270723 -0.964425 -0.8938706 0.8151285 0.34197214
-0.4323466 -0.49528587 0.1323181 0.40584895 -0.2223376 -0.13771504 1.3318453 1.3965936
-0.33278918 1.0519773 0.44523114 -1.420166 0.73304725 0.35858756 -0.24014 0.09579082
0.11768533 0.47567227 1.2258408 0.7571291 -0.1727843 1.5570356 -0.6559897 -0.4694243
00000000: 19f5 0dbf ed15 393f 6d2c 263f 933f 0abf
00000010: bc71 12be 4389 86bc 39c5 213e a33a 20bf
00000020: 741e 3fbe f0c5 87bd c002 7abe 282d 89be
00000030: f679 743e c45e 17be 4070 103c 76cc 1d3e
00000040: e00f 883f f71f 18bf de6a 4e3f b245 813f
00000050: 7ad3 9c3f 5e5c a1bf ef1f 1e3f 3ee9 9dbe
00000060: 8c10 a53f aade 563f 577c a3bf ff26 1fbe
00000070: 51dd 17be 9b55 dc3d 1911 da3e 3ff1 833f
00000080: 1207 99bf 968c a33f 0fcf 8c3e cf87 203f
00000090: 8fe4 76bf b4d4 64bf 43ac 503f f916 af3e
000000a0: 895c ddbe 1c96 fdbe 657e 073e 6fcb cf3e
000000b0: 78ac 63be 2c05 0dbe e879 aa3f 94c3 b23f
000000c0: 5863 aabe 31a7 863f 56f5 e33e 00c8 b5bf
000000d0: fca8 3b3f ca98 b73e 43e7 75be fa2d c43d
000000e0: 0205 f13d 518b f33e 5ae8 9c3f 36d3 413f
000000f0: 5eee 30be f14c c73f f1ee 27bf 6258 f0be

l2.bias f4 [8]
0.025349531 -0.20814928 0.575556 0.19600624 0.011625641 0.6086317 0.043708596 0.73130524
00000000: d2a9 cf3c 1625 55be a357 133f dcb5 483e
00000010: 7979 3e3c 49cf 1b3f c907 333d d236 3b3f

l3.weight f4 [13, 8]
-0.7387211 -0.31288013 -1.1040128 -0.086409226 -0.35606816 0.17160095 -0.7862069 0.5330153
0.45105028 0.282137 -1.0429059 -0.6108705 0.48033696 0.20899686 0.06744136 -0.63384646
0.49303085 -0.24099623 -0.8367566 -1.641812 0.40348503 -0.53265864 -0.06832999 0.2556569
-0.27546948 0.34043714 -0.24909694 0.46857736 -1.0220296 0.0036548888 -1.487301 -0.9054918
-0.71837157 0.018414468 0.29720557 0.12612282 -0.4123782 -1.0149683 -0.44647166 -0.64863724
-0.5720084 0.25862172 -0.0553947 -1.59969 0.60716385 0.526238 -1.2768844 0.1563913
-0.7044287 -0.19656686 0.7269782 -0.9711991 -1.5273775 0.7835216 -1.062323 -0.38971007
-1.2657455 0.27359924 -1.1707377 0.09341179 0.6586877 0.05432305 -0.54749125 -1.0250838
-1.1665556 0.33528462 0.069849305 -0.42073998 0.45593444 0.3170399 -1.5703567 -1.1502526
-1.2752548 0.19982871 -0.5837093 -0.0772142 -1.0704205 -1.0841154 0.2880595 0.10960717
0.43521142 0.34262267 -0.51516056 -1.3028388 -0.89536285 -1.061734 0.42955968 0.35791385
-0.95648295 0.13511908 0.5732141 -0.991788 -1.1651558 -0.9791161 -1.0558996 0.62979007
-0.56753993 0.08474761 -1.5036663 0.059467286 -0.32755834 0.82539606 -1.8696758 -0.9314628
00000000: d31c 3dbf d331 a0be 4b50 8dbf 52f7 b0bd
00000010: 914e b6be 29b8 2f3e db44 49bf b173 083f
00000020: 10f0 e63e 4374 903e f17d 85bf 0262 1cbf
00000030: baee f53e 4603 563e b21e 8a3d c343 22bf
00000040: 8a6e fc3e b7c7 76be ae35 56bf e526 d2bf
00000050: 9795 ce3e 515c 08bf 98f0 8bbd 76e5 823e
00000060: 560a 8dbe c74d ae3e 4513 7fbe 5fe9 ef3e
00000070: ded1 82bf dc86 6f3b e15f bebf 50ce 67bf
00000080: 33e7 37bf f0d9 963c 542b 983e 5726 013e
00000090: 3c23 d3be 7bea 81bf ef97 e4be 170d 26bf
000000a0: 246f 12bf 116a 843e 8ee5 62bd a4c2 ccbf
000000b0: 176f 1b3f 89b7 063f f370 a3bf 0a25 203e
000000c0: 7055 34bf d348 49be 3e1b 3a3f 81a0 78bf
000000d0: 1b81 c3bf df94 483f 33fa 87bf 1488 c7be
000000e0: f303 a2bf 3315 8c3e bcda 95bf ae4e bf3d
000000f0: c29f 283f d981 5e3d 6328 0cbf f235 83bf
00000100: b251 95bf 6daa ab3e 270d 8f3d 3b6b d7be
00000110: 3d70 e93e 0e53 a23e 7301 c9bf 7a3b 93bf
00000120: 8d3b a3bf e69f 4c3e f96d 15bf 7a22 9ebd
00000130: 8a03 89bf 4bc4 8abf 897c 933e b979 e03d
00000140: 08d4 de3e 3d6c af3e 90e1 03bf 6cc3 a6bf
00000150: 8036 65bf e6e6 87bf 3fef db3e 7c40 b73e
00000160: 11dc 74bf a85c 0a3e 29be 123f d2e5 7dbf
00000170: d323 95bf 5aa7 7abf b827 87bf ec39 213f
00000180: 4c4a 11bf 2890 ad3d 2378 c0bf f893 733d
00000190: bab5 a7be 284d 533f 8951 efbf 5974 6ebf

l3.bias f4 [13]
-0.11743147 -0.20923291 -0.54567933 0.25170413 0.19387233 -0.12646319 0.096938424 -0.08533718
-0.10953288 0.21892418 0.06730759 0.16920212 0.07376461
00000000: e97f f0bd 2741 56be a4b1 0bbf 5ddf 803e
00000010: 7886 463e 917f 01be a787 c63d 42c5 aebd
00000020: c652 e0bd a92d 603e 90d8 893d 5243 2d3e
00000030: e611 973d
